…
          1, 12, bias=False
          (ln_r): Identity()
          (ln_z): Identity()
          (ln_n): Identity()
        )
      )
    )
    (hidden2class): Linear(in_features=12, out_features=1, bias=True)
  )
)
2020-08-25T20:47:51Z INFO     -------------------------------------------------------------------------------
2020-08-25T20:47:51Z INFO             Layer (type)              Output Shape         Param #          Device
2020-08-25T20:47:51Z INFO     ===============================================================================
2020-08-25T20:47:51Z INFO               Identity-1                   [1, 12]               0            None
2020-08-25T20:47:51Z INFO               Identity-2                   [1, 12]               0            None
2020-08-25T20:47:51Z INFO               Identity-3                   [1, 12]               0            None
2020-08-25T20:47:51Z INFO               Identity-4                   [1, 12]               0            None
2020-08-25T20:47:51Z INFO               Identity-5                   [1, 12]               0            None
2020-08-25T20:47:51Z INFO               Identity-6                   [1, 12]               0            None
2020-08-25T20:47:51Z INFO               Identity-7                   [1, 12]               0            None
2020-08-25T20:47:51Z INFO               Identity-8                   [1, 12]               0            None
2020-08-25T20:47:51Z INFO               Identity-9                   [1, 12]               0            None
2020-08-25T20:47:51Z INFO              Identity-10                   [1, 12]               0            None
2020-08-25T20:47:51Z INFO              Identity-11                   [1, 12]               0            None
2020-08-25T20:47:51Z INFO              Identity-12                   [1, 12]               0            None
2020-08-25T20:47:51Z INFO              Identity-13                   [1, 12]               0            None
2020-08-25T20:47:51Z INFO              Identity-14                   [1, 12]               0            None
2020-08-25T20:47:51Z INFO              Identity-15                   [1, 12]               0            None
2020-08-25T20:47:51Z INFO              Identity-16                   [1, 12]               0            None
2020-08-25T20:47:51Z INFO              Identity-17                   [1, 12]               0            None
2020-08-25T20:47:51Z INFO              Identity-18                   [1, 12]               0            None
2020-08-25T20:47:51Z INFO              Identity-19                   [1, 12]               0            None
2020-08-25T20:47:51Z INFO              Identity-20                   [1, 12]               0            None
2020-08-25T20:47:51Z INFO              Identity-21                   [1, 12]               0            None
2020-08-25T20:47:51Z INFO              Identity-22                   [1, 12]               0            None
2020-08-25T20:47:51Z INFO              Identity-23                   [1, 12]               0            None
2020-08-25T20:47:51Z INFO              Identity-24                   [1, 12]               0            None
2020-08-25T20:47:51Z INFO              Identity-25                   [1, 12]               0            None
2020-08-25T20:47:51Z INFO              Identity-26                   [1, 12]               0            None
2020-08-25T20:47:51Z INFO              Identity-27                   [1, 12]               0            None
2020-08-25T20:47:51Z INFO              Identity-28                   [1, 12]               0            None
2020-08-25T20:47:51Z INFO              Identity-29                   [1, 12]               0            None
2020-08-25T20:47:51Z INFO              Identity-30                   [1, 12]               0            None
2020-08-25T20:47:51Z INFO              Identity-31                   [1, 12]               0            None
2020-08-25T20:47:51Z INFO              Identity-32                   [1, 12]               0            None
2020-08-25T20:47:51Z INFO              Identity-33                   [1, 12]               0            None
2020-08-25T20:47:51Z INFO                Linear-34                 [1, 1, 1]              13          cuda:0
2020-08-25T20:47:51Z INFO     ===============================================================================
2020-08-25T20:47:51Z INFO     Total params: 13
2020-08-25T20:47:51Z INFO     Trainable params: 13
2020-08-25T20:47:51Z INFO     Input mem size (MB)(Wout mixed-precision): 0.00
2020-08-25T20:47:51Z INFO     Forward/backward pass mem size (MB)(Wout mixed-precision): 0.00
…
